Model Run/checkpoint_LSTM_16.pth (torch_old, 278977 bytes, 20 tensors)

params f4 [2217, 16]
1.0191722 1.6037109 -1.7861466 -0.34626713 1.1758977 1.6325339 -0.7911675 0.6545745
-1.480939 -2.4329572 -0.29663667 -0.23532535 -1.1539471 0.8145244 -0.5570858 -1.7347393
1.0617889 -0.5059396 -1.6028502 0.121296406 0.1969413 -0.40686655 -1.616099 1.7711682
1.0900656 1.0850725 -1.3818526 -0.43376577 1.8326428 0.8876886 -0.10377461 2.0095532
-1.6911798 -1.3023471 0.09276592 0.56391 1.0926192 -0.17117932 -0.9417885 -1.0725192
-1.2954509 -1.3699783 1.4210826 1.9388791 -1.1537778 0.5007061 -1.7295107 -1.7575401
0.75582194 -0.27343354 -2.5002577 1.1339248 -1.02907 -0.46939203 0.45602012 0.72639745
0.4270935 -0.955828 0.65669197 -0.8147201 -1.2299169 1.0738895 -0.5318386 -0.18271486
0.098862074 2.0987394 0.71927655 0.8346857 -0.10432663 0.124730796 0.32485053 0.032927647
-1.1468514 -0.00013983413 -0.2868708 0.09269921 -1.0368903 1.0067931 -3.2426448 -0.53344554
0.4384792 2.052596 0.576385 -1.0298778 0.32368356 0.7050727 0.38838926 0.25088674
0.20522073 1.4379301 0.6253462 0.52425027 0.93211216 0.62406677 1.3663914 0.07605272
0.8256528 -0.29135215 -1.3366882 0.35316795 -0.20969266 -0.034023356 1.1821656 0.26032388
-0.60389143 -0.89890873 0.7638608 1.136846 -0.09004089 0.25379476 2.2997625 0.37110397
1.1245934 -0.6484519 -0.40939042 -0.73845315 -0.14032681 -0.880907 0.6940539 0.71363413
-0.6807594 0.20999205 1.4855418 -0.6415065 -0.4691621 -1.0371579 0.79196066 -0.6028693
1.0752888 0.68628466 0.5345589 -0.21181531 0.9350386 -1.7453649 -0.3241867 0.37853926
-0.44476205 -0.178033 -0.7641802 -1.9293023 -1.0906327 0.046604108 -0.8348071 -1.5260695
-1.0019075 0.45843244 -1.0012467 0.057056863 -2.2227888 1.2713257 1.6237996 -1.2682434
0.44103658 0.6924425 0.5814402 0.31352675 -0.18753102 -0.49646053 -3.6082003 0.34685746
0.74433964 0.8954195 -0.14143623 0.98072857 -1.1428362 -0.095335476 0.7991191 -1.1391946
1.8832808 -0.23665872 -1.388414 -0.3095094 -0.6047111 1.4379504 -2.3688228 -1.7021306
-1.4094648 -0.72931504 -1.6891507 0.41608214 -0.059082434 1.167852 0.83188707 0.12886633
2.4128847 0.6395456 -0.03846133 -1.3983572 1.4940258 -1.9648215 -1.1272194 0.71237373
2.1349857 0.8248632 0.10184044 1.0155275 -0.57941 0.72060156 -1.3182405 2.0563097
0.363515 0.17838553 0.31714407 -1.5189738 -0.17419036 0.38601062 0.5345487 -0.33750007
0.28295198 -1.678062 0.18924794 0.77505296 0.3528313 -1.2669438 -0.7505384 -1.0319208
-0.7305415 0.56916934 -1.2657168 -1.0182526 0.6929878 -0.09688482 -0.6450803 2.4144468
-0.87269604 1.227071 -2.3001533 -0.62542015 -0.13516095 -1.4098749 1.4173197 0.75583375
0.5134466 1.2559818 1.0452144 -1.2202524 0.30454275 -0.41409045 -2.8789177 0.28999916
-0.41570842 2.9057398 0.9825934 1.1622949 1.2082205 -1.0088377 -0.06136707 -0.6293976
1.8086325 0.102833554 0.13281918 -0.43005136 1.0224293 -0.10615084 -0.34776968 -0.72035474
00000000: 3c74 823f 6646 cd3f 74a0 e4bf ed49 b1be
00000010: d183 963f dff6 d03f f489 4abf 3292 273f
00000020: 698f bdbf 92b5 1bc0 c3e0 97be 21f9 70be
00000030: 8ab4 93bf ac84 503f 2d9d 0ebf f00b debf
00000040: b3e8 873f 4285 01bf 322a cdbf 406a f83d
00000050: fbaa 493e d050 d0be 55dc cebf a4b5 e23f
00000060: 4587 8b3f a8e3 8a3f 8ce0 b0bf 8c16 debe
00000070: 0a94 ea3f 8f3f 633f c887 d4bd 859c 0040
00000080: 9478 d8bf 4fb3 a6bf 0ffc bd3d 685c 103f
00000090: f2da 8b3f a249 2fbe 0d19 71bf 4f48 89bf
000000a0: 56d1 a5bf 735b afbf 09e6 b53f 312d f83f
000000b0: feae 93bf 462e 003f 9b60 ddbf 13f7 e0bf
000000c0: 8c7d 413f 7bff 8bbe 3904 20c0 7324 913f
000000d0: 91b8 83bf 2754 f0be 787b e93e 2ff5 393f
000000e0: 00ac da3e 25b1 74bf f71c 283f 7f91 50bf
000000f0: eb6d 9dbf 3675 893f 9326 08bf 9b19 3bbe
00000100: 3378 ca3d bf51 0640 8222 383f f6ad 553f
00000110: 33a9 d5bd dc72 ff3d cf52 a63e 24df 063d
00000120: 07cc 92bf 70a0 12b9 bbe0 92be 15d9 bd3d
00000130: d2b8 84bf 99de 803f 7e87 4fc0 e38f 08bf
00000140: 5880 e03e bc5d 0340 f88d 133f 09d3 83bf
00000150: dab9 a53e a57f 343f f5da c63e 3a74 803e
00000160: 6225 523e 180e b83f b016 203f 4435 063f
00000170: e79e 6e3f d7c2 1f3f eae5 ae3f 87c1 9b3d
00000180: fb5d 533f 1c2c 95be 9918 abbf 6ed2 b43e
00000190: acb9 56be 135c 0bbd 3451 973f 2c49 853e
000001a0: a198 1abf e21e 66bf 628c 433f 2b84 913f
000001b0: 5c67 b8bd 63f1 813e 4f2f 1340 5701 be3e
000001c0: adf2 8f3f f200 26bf 9f9b d1be 440b 3dbf
000001d0: d5b1 0fbe 1f83 61bf 84ad 313f bab0 363f
000001e0: 3f46 2ebf 2808 573e 3c26 be3f c539 24bf
000001f0: 0436 f0be 97c1 84bf efbd 4a3f a455 1abf
00000200: 10a3 893f 5ab0 2f3f dad8 083f 1de6 58be
00000210: b15e 6f3f 1e68 dfbf cdfb a5be e6cf c13e
00000220: dab7 e3be 484e 36be 50a1 43bf 61f3 f6bf
00000230: da99 8bbf f3e3 3e3d ebb5 55bf 3f56 c3bf
00000240: 813e 80bf a8b7 ea3e da28 80bf 75b4 693d
00000250: 2c42 0ec0 cdba a23f aad8 cf3f cd55 a2bf
00000260: 8ccf e13e e943 313f 44d9 143f 9486 a03e
00000270: 2208 40be 1330 febe c1ec 66c0 4d97 b13e
00000280: 0b8d 3e3f 363a 653f a9d4 10be 0711 7b3f
00000290: 7548 92bf 3f3f c3bd 1293 4c3f 21d1 91bf
000002a0: 580f f13f aa56 72be 8db7 b1bf 0478 9ebe
000002b0: 59ce 1abf c20e b83f cb9a 17c0 6adf d9bf
000002c0: 5869 b4bf 64b4 3abf 1736 d8bf b808 d53e
000002d0: 6c00 72bd 2d7c 953f 8df6 543f 89f5 033e
000002e0: b46c 1a40 43b9 233f a189 1dbd 5efd b2bf
000002f0: 3d3c bf3f 457f fbbf ba48 90bf 205e 363f
00000300: 9ba3 0840 3c2a 533f b891 d03d cefc 813f
00000310: 3754 14bf 5879 383f 1bbc a8bf 949a 0340
00000320: a31e ba3e b2aa 363e b560 a23e bc6d c2bf
00000330: f55e 32be 2fa3 c53e 2fd8 083f cfcc acbe
00000340: 15df 903e bcca d6bf 36ca 413e df69 463f
00000350: 4ea6 b43e 372b a2bf 4923 40bf fb15 84bf
00000360: c504 3bbf 15b5 113f 0203 a2bf 1a56 82bf
00000370: a667 313f 8c6b c6bd fc23 25bf 4c86 1a40
00000380: 0269 5fbf aa10 9d3f b635 13c0 891b 20bf
00000390: a267 0abe c876 b4bf bb6a b53f 527e 413f
000003a0: 3d71 033f 03c4 a03f 96c9 853f 3b31 9cbf
000003b0: 07ed 9b3e aa03 d4be 3040 38c0 c57a 943e
000003c0: bcd7 d4be a4f7 3940 3e8b 7b3f 14c6 943f
000003d0: f8a6 9a3f 9821 81bf 095c 7bbd 3320 21bf
000003e0: 4581 e73f 669a d23d c001 083e b12f dcbe
000003f0: f7de 823f 9d65 d9bd de0e b2be 2b69 38bf

params f4 [64, 16]
0.04599303 -0.16912143 0.104468614 -0.082422204 0.28558642 0.34634945 0.2590917 -0.26717606
-0.08463296 0.14169194 0.17400323 0.044679657 0.24571168 0.090377666 -0.18851629 0.23407222
0.40468255 -0.10220532 -0.29498655 0.73167306 0.28262958 0.21112782 -0.035177507 0.42976812
0.37208378 0.459669 0.031107679 -0.0788779 -0.03675375 -0.103933856 -0.23910092 -0.09275313
-0.095612034 0.25872067 0.27952603 -0.13477002 -0.27089456 0.07795614 0.3444887 -0.2473941
-0.1947831 0.22409052 0.29314703 0.12884532 -0.06563268 -0.15829746 0.031576123 -0.104706645
0.25469515 -0.16604277 -0.31863162 0.0014893308 -0.1468425 0.10281317 0.089945175 0.07131384
-0.06731937 0.22541001 -0.15833464 -0.21229854 0.36906248 0.20527956 -0.2837334 0.080247544
-0.11866493 0.1369498 0.16719812 -0.3839276 -0.045679748 -0.05808517 -0.026522076 -0.3730958
0.09217375 -0.4213563 0.11001143 -0.24425824 0.13345864 0.13291699 0.15048942 0.29136917
0.06629239 0.19549388 0.3714038 0.09054086 -0.15303504 0.26132718 -0.17556362 -0.24908285
-0.39520845 -0.03892807 -0.12805194 0.041490827 -0.048809547 -0.11614287 -0.055632748 -0.01114857
-0.26325792 0.35813975 0.03572339 0.1070728 -0.21651717 0.05875402 0.43918535 0.40088215
0.13185158 0.005253842 0.12170672 0.07298142 0.36800092 0.26483598 0.022977913 0.124596626
-0.00819755 -0.2892212 0.1735111 -0.06245906 -0.040661715 0.044326015 -0.16604617 0.18589185
0.20352492 -0.12502553 0.10131092 0.0050688805 0.048220474 0.003980596 -0.00519107 0.033212
-0.1707126 0.18892491 0.02698879 0.1971156 -0.34375632 0.31896806 0.0026525017 0.13061209
0.27364424 0.24345742 0.12197062 -0.57477814 -0.006943952 0.2099371 -0.16662115 0.33089402
-0.14187977 -0.029507458 0.12600772 0.028519576 0.09917594 0.16376889 -0.09055219 0.06270404
-0.3167786 -0.32775232 -0.38717514 0.055604525 -0.26654416 0.41232193 -0.022476194 0.042436462
0.009447846 -0.051065553 -0.23009399 0.3584123 0.27759343 0.077737615 0.32707417 0.46489906
0.49271795 -0.16913933 -0.23063307 -0.01062326 0.52794254 -0.25967094 -0.3143373 0.077839755
-0.3129943 0.020442642 0.46287626 -0.14231566 -0.605866 -0.051977407 0.37767288 0.87537235
0.28777158 -0.48628923 -0.21287628 -0.10981729 0.48709047 -0.34760466 0.16729905 -0.22560717
0.3306642 0.18188469 0.02878614 0.1315973 0.14871524 -0.0747343 0.2825953 -0.13444349
-0.24171206 -0.016129445 0.18379994 0.107498854 -0.1414542 -0.24446408 -0.07179278 -0.39609048
-0.071941495 -0.2740699 -0.3528339 0.029992187 0.23467109 -0.3788729 -0.0144864395 -0.025907295
0.054012384 0.015548014 -0.18898948 0.035712495 -0.20685877 -0.22059393 -0.12807803 -0.028686116
0.23754378 0.2097408 0.47324014 0.15785514 0.26991516 0.21896379 0.32866225 -0.38279688
0.14859965 -0.27799162 0.34702867 -0.21630321 -0.05616758 0.13766475 -0.053877987 0.14589356
0.33896196 0.153635 0.107696176 0.019903349 -0.21965028 0.057386726 0.03514157 0.014074698
-0.07635315 -0.12729697 0.054155394 0.1909184 0.044053335 0.13766061 -0.12868156 0.14252615
00000000: 3063 3c3d 2b2e 2dbe a4f3 d53d f9cc a8bd
00000010: 6238 923e b754 b13e aba7 843e 4dcb 88be
00000020: 0c54 adbd b117 113e e72d 323e 0402 373d
00000030: d89b 7b3e ed17 b93d 6a0a 41be a1b0 6f3e
00000040: 8d32 cf3e 0651 d1bd 7a08 97be ed4e 3b3f
00000050: d3b4 903e e431 583e 4a16 10bd 910a dc3e
00000060: c481 be3e bc59 eb3e 88d5 fe3c bd8a a1bd
00000070: 1a8b 16bd 46db d4bd dfd6 74be 5af5 bdbd
00000080: 3ed0 c3bd 0977 843e 091e 8f3e 2701 0abe
00000090: b1b2 8abe 78a7 9f3d d360 b03e e154 7dbe
000000a0: 3975 47be fc77 653e 5e17 963e 07f0 033e
000000b0: 6d6a 86bd bb18 22be f755 013d 7070 d6bd
000000c0: 6767 823e 1e07 2abe af23 a3be a635 c33a
000000d0: e15d 16be b68f d23d 2d35 b83d fe0c 923d
000000e0: bdde 89bd e2d1 663e 7a22 22be ca64 59be
000000f0: c2f5 bc3e ce34 523e 8145 91be d358 a43d
00000100: 9906 f3bd 923c 0c3e fc35 2b3e 2992 c4be
00000110: b01a 3bbd b7ea 6dbd d344 d9bc 6a06 bfbe
00000120: 97c5 bc3d 03bc d7be ac4d e13d d51e 7abe
00000130: 62a9 083e 641b 083e e619 1a3e 572e 953e
00000140: 4ec4 873d 8c2f 483e a428 be3e 7d6d b93d
00000150: 38b5 1cbe adcc 853e f3c6 33be 930f 7fbe
00000160: c358 cabe 0a73 1fbd 0c20 03be 49f2 293d
00000170: 85ec 47bd 50dc edbd 2adf 63bd 7ea8 36bc
00000180: bec9 86be 185e b73e b052 123d fc48 db3d
00000190: adb6 5dbe 0ea8 703d e7dc e03e 6d40 cd3e
000001a0: 1a04 073e 6c28 ac3b 5f41 f93d 4877 953d
000001b0: 9e6a bc3e 9598 873e 2d3c bc3c 842c ff3d
000001c0: 044f 06bc cd14 94be e5ac 313e 12d5 7fbd
000001d0: e68c 26bd 328f 353d 0208 2abe 6f5a 3e3e
000001e0: d668 503e b106 00be 1a7c cf3d da18 a63b
000001f0: d582 453d a96f 823b da19 aabb 4e09 083d
00000200: 49cf 2ebe 8875 413e 9817 dd3c acd8 493e
00000210: d400 b0be c84f a33e 98d5 2d3b 2dbf 053e
00000220: 191b 8c3e e74c 793e bbcb f93d a924 13bf
00000230: 178a e3bb c0f9 563e bc9e 2abe f16a a93e
00000240: ee48 11be a0b9 f1bc 2b08 013e e3a1 e93c
00000250: c11c cb3d 08b3 273e 6d73 b9bd fa6a 803d
00000260: ce30 a2be 27cf a7be d23b c6be 92c1 633d
00000270: 7a78 88be dc1b d33e ff1f b8bc dbd1 2d3d
00000280: 23cb 1a3c 1d2a 51bd c29d 6bbe d181 b73e
00000290: ba20 8e3e e634 9f3d 4476 a73e 4007 ee3e
000002a0: 8745 fc3e dc32 2dbe 132b 6cbe 2f0d 2ebc
000002b0: 3e27 073f 97f3 84be d2f0 a0be 736a 9f3d
000002c0: ca40 a0be 5477 a73c 1efe ec3e 32bb 11be
000002d0: 091a 1bbf 43e6 54bd 575e c13e 6718 603f
000002e0: cc56 933e e7fa f8be 3dfc 59be e3e7 e0bd
000002f0: ec63 f93e 3df9 b1be 7150 2b3e 9105 67be
00000300: d14c a93e fb3f 3a3e e9d0 eb3c 71c1 063e
00000310: cf48 183e 4c0e 99bd 55b0 903e 8eab 09be
00000320: 5e83 77be e621 84bc 0d36 3c3e 5c28 dc3d
00000330: 5fd9 10be cb54 7abe 1808 93bd 5fcc cabe
00000340: 1056 93bd e452 8cbe a5a6 b4be 2db2 f53c
00000350: 9e4d 703e a1fb c1be 8858 6dbc 893b d4bc
00000360: 173c 5d3d 19bd 7e3c 7586 41be 4447 123d
00000370: c9d2 53be 60e3 61be e326 03be 25ff eabc
00000380: ad3e 733e 4bc6 563e 884c f23e c7a4 213e
00000390: 5232 8a3e 0b38 603e 6b46 a83e f4fd c3be
000003a0: 822a 183e eb54 8ebe bead b13e 977e 5dbe
000003b0: fa0f 66bd fdf7 0c3e 2aaf 5cbd 1f65 153e
000003c0: 6c8c ad3e 7e52 1d3e d08f dc3d 590c a33c
000003d0: 01ec 60be 580e 6b3d 9bf0 0f3d 9099 663c
000003e0: 0a5f 9cbd 235a 02be 0cd2 5d3d 1d80 433e
000003f0: 4571 343d e7f6 0c3e 19c5 03be 60f2 113e

params f4 [64, 16]
-0.12306573 0.15197097 -0.08326697 0.14304858 0.18349129 0.06849884 -0.106397696 0.03133928
0.015586765 -0.17089444 -0.18675445 0.18783209 0.22104697 -0.100421034 0.0020176612 -0.008003578
0.0814561 -0.050203133 -0.30729893 0.100389205 0.19285412 -0.18125127 -0.023870923 0.3108176
0.2378667 0.0509418 -0.016351996 0.4288721 0.08517199 0.074642524 -0.107292295 0.19778645
0.20095186 -0.032559253 -0.30087242 -0.05382176 -0.044962693 0.100796685 0.18621527 -0.11706915
0.0042704246 0.064041846 -0.06960449 -0.18893206 -0.062429786 -0.08009053 -0.1847462 -0.07075797
0.0062713716 0.065445706 -0.34229907 -0.0007428236 0.20287108 0.16956943 0.07795663 0.2004161
0.25642315 0.014276105 -0.17500697 0.22721308 -0.1307426 0.15950245 -0.2245634 -0.16016354
0.1637046 0.16284764 -0.16404743 0.10774669 -0.052572343 0.020783171 0.029208947 -0.027237453
0.19513708 -0.021233665 0.1223947 0.17334439 0.1517527 -0.103348166 -0.1983744 0.065915816
-0.1513243 0.044951394 0.068357214 -0.06355181 -0.047209006 0.17276062 0.10295168 0.08057365
-0.068749815 0.06253688 0.029372746 0.2089846 0.19000538 -0.17126375 0.06898712 0.010791339
-0.16440575 0.13063356 0.23954405 -0.058589537 -0.07101436 0.16018017 0.25753424 -0.065398216
-0.0943671 0.08425213 0.003023459 0.35806334 0.07138059 -0.103585 -0.091928825 0.037245743
0.07185813 0.012036288 -0.10062523 -0.096743934 -0.19229472 -0.09283246 -0.25676563 0.17596379
-0.055481628 0.21993323 -0.08315247 -0.07052627 0.19922434 0.045385793 -0.108143635 0.20409645
-0.21932289 0.1780615 -0.20954424 0.16999792 0.089323044 -0.19887067 -0.16150516 -0.13242304
0.022925427 -0.151399 -0.24578185 0.06280467 0.25662032 0.13668509 -0.20742612 0.21395434
-0.0055269087 0.14600737 -0.0726967 0.0023143354 -0.28315815 0.14735942 -0.10525639 -0.047630858
0.15005705 0.04625755 0.06888797 0.11948479 0.23419937 -0.016374161 -0.13970563 0.23026769
0.08823073 0.2036749 0.026217869 -0.17963931 -0.035364978 0.025451878 -0.24515069 0.011749087
0.16936982 0.13683301 0.11567855 0.10075398 -0.23888162 0.23680586 -0.09084547 -0.21759768
0.12157295 0.0789111 0.28090328 -0.18013047 0.14000179 0.46835518 -0.06447026 -0.12888172
0.26298547 -0.092025466 -0.22587912 1.0880241 0.12468981 0.07507118 -0.20180804 -0.33481908
0.119302854 0.22757104 -0.12823905 0.2862016 0.1644297 0.035236355 0.18266588 0.04786774
0.11427933 0.11589137 0.20335227 -0.13193625 0.056291103 0.003866726 -0.08072818 -0.026137887
-0.22613023 -0.045293268 0.119865015 -0.19985019 0.10390098 0.25667468 0.17049281 -0.093990594
-0.18768504 0.22109734 0.07176233 -0.13450682 0.152187 -0.012954254 -0.030501684 -0.2044897
-0.086403795 -0.0009548197 -0.060659554 -0.1323691 0.17872891 0.18659095 -0.07071139 -0.03018091
0.31982777 -0.13412644 -0.22946176 0.31258294 -0.20500281 -0.061785813 -0.040650647 0.024962304
0.2508498 0.20448664 -0.108715616 -0.14505668 -0.1177974 0.07894342 -0.19017856 0.07589207
-0.16939543 -0.22462445 0.24035852 0.016797556 -0.030874727 0.09374775 0.08079843 -0.15705812
00000000: e309 fcbd 479e 1b3e e087 aabd 547b 123e
00000010: 24e5 3b3e 1f49 8c3d 09e7 d9bd 9e5d 003d
00000020: a15f 7f3c f4fe 2ebe 8f3c 3fbe 0e57 403e
00000030: 235a 623e 8ba9 cdbd bd3a 043b 7021 03bc
00000040: 75d2 a63d cda1 4dbd 4956 9dbe db98 cd3d
00000050: 8d7b 453e ef99 39be f48c c3bc 7c23 9f3e
00000060: 5493 733e 59a8 503d 9ff4 85bc 2095 db3e
00000070: a76e ae3d 2ede 983d 10bc dbbd 8888 4a3e
00000080: 53c6 4d3e da5c 05bd f30b 9abe 3574 5cbd
00000090: cd2a 38bd 7e6e ce3d 37af 3e3e f3c1 efbd
000000a0: ebee 8b3b 5f28 833d cd8c 8ebd 6877 41be
000000b0: 60b6 7fbd 8106 a4bd 1c2e 3dbe 8ee9 90bd
000000c0: 1480 cd3b 6608 863d d341 afbe 0cba 42ba
000000d0: 70bd 4f3e 9ca3 2d3e baa7 9f3d e139 4d3e
000000e0: e549 833e 53e6 693c 0735 33be 8caa 683e
000000f0: 63e1 05be 9c54 233e f3f3 65be e901 24be
00000100: 2ea2 273e 88c1 263e 0dfc 27be 4caa dc3d
00000110: 1956 57bd 7841 aa3c 9a47 ef3c 1421 dfbc
00000120: 04d2 473e 39f2 adbc 13aa fa3d 3181 313e
00000130: 0f65 1b3e 34a8 d3bd a922 4bbe dffe 863d
00000140: c2f4 1abe f41e 383d defe 8b3d 7427 82bd
00000150: 3b5e 41bd 29e8 303e 55d8 d23d cc03 a53d
00000160: b4cc 8cbd 5613 803d 1d9f f03c 0f00 563e
00000170: c590 423e c45f 2fbe 1f49 8d3d 28ce 303c
00000180: fb59 28be cec4 053e 094b 753e 95fb 6fbd
00000190: fa6f 91bd 4506 243e 87db 833e 80ef 85bd
000001a0: 8a43 c1bd 618c ac3d 3a25 463b 1454 b73e
000001b0: fd2f 923d 5f24 d4bd 2e45 bcbd fe8e 183d
000001c0: 5b2a 933d da33 453c 9a14 cebd af21 c6bd
000001d0: e8e8 44be f21e bebd c976 83be da2f 343e
000001e0: b440 63bd 2d36 613e d84b aabd 1470 90bd
000001f0: 7701 4c3e 74e6 393d 697a ddbd a9fe 503e
00000200: 2e96 60be c155 363e c492 56be ef13 2e3e
00000210: 00ef b63d c1a4 4bbe 9c61 25be e899 07be
00000220: 1bce bb3c 5708 1bbe 3dae 7bbe bc9f 803d
00000230: bd63 833e 2df7 0b3e 8367 54be d916 5b3e
00000240: 121b b5bb f582 153e 02e2 94bd 1bac 173b
00000250: 1bfa 90be 63e5 163e aa90 d7bd 9318 43bd
00000260: 8ea8 193e 8f78 3d3d 2315 8d3d 71b4 f43d
00000270: f6d1 6f3e 1b23 86bc fe0e 0fbe 4bcb 6b3e
00000280: 50b2 b43d 2790 503e dbc6 d63c 5ef3 37be
00000290: deda 10bd 7580 d03c c808 7bbe 3e7f 403c
000002a0: 486f 2d3e f41d 0c3e e0e8 ec3d 1a58 ce3d
000002b0: 629d 74be 3c7d 723e 310d babd edd1 5ebe
000002c0: 3dfb f83d 259c a13d 8ed2 8f3e 1f74 38be
000002d0: a15c 0f3e 40cc ef3e fc08 84bd 92f9 03be
000002e0: 08a6 863e d977 bcbd db4c 67be 6044 8b3f
000002f0: 5f5d ff3d ebbe 993d c4a6 4ebe 686d abbe
00000300: 0e55 f43d 6208 693e 1951 03be 0489 923e
00000310: 4260 283e ff53 103d c40c 3b3e f710 443d
00000320: 480b ea3d 7458 ed3d 943b 503e 4c1a 07be
00000330: 8091 663d e668 7d3b d154 a5bd 1f1f d6bc
00000340: af8e 67be 6f85 39bd ca7b f53d 87a5 4cbe
00000350: 09ca d43d dd6a 833e ab95 2e3e 247e c0bd
00000360: 8230 40be 5767 623e 21f8 923d 28bc 09be
00000370: e9d6 1b3e 143e 54bc abde f9bc bf65 51be
00000380: 79f4 b0bd de4c 7aba 2776 78bd c48b 07be
00000390: b604 373e b311 3f3e 22d1 90bd f53d f7bc
000003a0: 77c0 a33e 7158 09be 06f8 6abe df0a a03e
000003b0: 42ec 51be 1f13 7dbd 4b81 26bd bf7d cc3c
000003c0: 636f 803e f264 513e 4ba6 debd bd89 14be
000003d0: c33f f1bd 16ad a13d 2bbe 42be 4d6d 9b3d
000003e0: ff75 2dbe f403 66be 8b20 763e 079b 893c
000003f0: ffec fcbc d2fe bf3d a679 a53d d8d3 20be

params f4 [64]
-0.2774243 -0.13304602 0.2829821 0.041654922 0.17487766 0.042975646 -0.05229346 -0.087158225
0.17824489 0.20420337 0.37279418 -0.15574464 -0.24586558 0.25810072 0.24862835 -0.110204585
-0.17036851 0.22050235 -0.2608429 -0.011505456 0.020768218 -0.15865515 -0.040440258 -0.19216508
0.18967 0.07089873 -0.20847115 0.09486674 -0.18361706 0.1429357 0.012517504 0.11960826
-0.103266805 0.24227372 -0.096052855 0.10937755 -0.35492736 0.22884871 -0.33591956 -0.26944563
0.039194938 0.16976328 -0.38910174 -0.3830071 0.20246746 0.2450202 -0.115550265 -0.38252324
0.16651946 0.44761816 0.1164624 0.017977739 -0.07153412 -0.09780441 -0.09830856 -0.35130882
0.18327557 0.06697329 0.27868584 0.5875983 -0.07847255 0.018222896 0.24731995 -0.35624605
00000000: 8f0a 8ebe 373d 08be 08e3 903e 5a9e 2a3d
00000010: 2113 333e 3b07 303d ab31 56bd 0380 b2bd
00000020: d485 363e b01a 513e e1de be3e 867b 1fbe
00000030: 30c4 7bbe c725 843e 6e98 7e3e f1b2 e1bd
00000040: 1575 2ebe 5ecb 613e 338d 85be 6181 3cbc
00000050: 1c22 aa3c 7f76 22be afa4 25bd ecc6 44be
00000060: da38 423e 5a33 913d 7679 55be 7e49 c23d
00000070: 1c06 3cbe bc5d 123e 3816 4d3c 2df5 f43d
00000080: 8c7d d3bd 9a16 783e 5cb7 c4bd 5601 e03d
00000090: 0ab9 b5be 5157 6a3e a6fd abbe c7f4 89be
000000a0: df8a 203d 6dd6 2d3e 5838 c7be 8219 c4be
000000b0: a153 4f3e 93e6 7a3e 9ea5 ecbd 16da c3be
000000c0: 1484 2a3e 352e e53e d783 ee3d 0d46 933c
000000d0: 7b80 92bd ae4d c8bd 0056 c9bd c0de b3be
000000e0: 97ac 3b3e 4b29 893d e9af 8e3e d86c 163f
000000f0: 37b6 a0bd 2f48 953c 7141 7d3e e265 b6be

params f4 [64]
-0.116263054 -0.084680766 0.17630693 -0.23594037 0.0544629 -0.20158792 0.12387574 0.15791282
0.020853605 -0.21467628 0.18659067 -0.15341638 -0.12843023 -0.009753204 0.1905619 0.004438832
-0.109756455 -0.21537568 -0.01855664 -0.063045725 -0.0007787752 -0.23729052 0.029300991 0.1179843
-0.1308352 -0.24520034 -0.1428255 -0.059068225 -0.3749638 0.2840748 -0.007895907 0.05829082
-0.090067245 0.3228038 -0.26152775 0.2547966 -0.043138746 0.12055286 -0.30514103 -0.21893024
-0.030525703 0.37764853 -0.69833475 -0.5649394 -0.12455804 0.11187311 -0.4559658 -0.10147943
-0.17573091 0.12995212 -0.12813896 -0.2496154 -0.03487263 0.050015613 0.21723199 0.07502439
0.23020725 0.0123790875 0.3651998 0.50334024 -0.19536658 -0.1105086 -0.097020395 -0.09390772
00000000: 531b eebd 1c6d adbd ce89 343e 5a9a 71be
00000010: 7d14 5f3d 106d 4ebe 90b2 fd3d e6b3 213e
00000020: 2ed5 aa3c 19d4 5bbe a011 3f3e 2f19 1dbe
00000030: 3783 03be e7cb 1fbc a922 433e 9f73 913b
00000040: fec7 e0bd 718b 5cbe 1804 98bc 1e1e 81bd
00000050: b826 4cba 49fc 72be a208 f03c c1a1 f13d
00000060: aaf9 05be cc15 7bbe d940 12be 86f1 71bd
00000070: 41fb bfbe 4172 913e d65d 01bc 5bc2 6e3d
00000080: 2d75 b8bd 8a46 a53e f7e6 85be b374 823e
00000090: 41b2 30bd 6be4 f63d 723b 9cbe 402f 60be
000000a0: 0a11 fabc 265b c13e 11c6 32bf de9f 10bf
000000b0: 4918 ffbd bb1d e53d 5974 e9be 73d4 cfbd
000000c0: cef2 33be 2b12 053e dc36 03be 2e9b 7fbe
000000d0: 9ad6 0ebd 2cdd 4c3d 1072 5e3e 63a6 993d
000000e0: 73bb 6b3e a8d1 4a3c 78fb ba3e e8da 003f
000000f0: 2d0e 48be 5552 e2bd a1b2 c6bd b152 c0bd

params f4 [1823, 16]
1.9803631 -0.78603846 0.8688081 -0.057826247 1.2489882 -1.1760194 0.821139 -0.17383274
-0.5498414 -0.25181273 0.18772812 -1.419327 -0.29453668 0.12867987 1.9654058 -1.7886318
1.4936043 -0.3826829 1.087729 -0.12485886 -0.17056543 -0.52173287 -0.3781026 0.9550326
1.8155093 0.8434942 0.07608686 -2.1182196 0.09782863 1.7591637 -0.6527541 -0.5070762
0.7951304 0.5783942 1.1483864 -0.016737519 0.35183123 -0.3751112 -0.30039665 -2.1716168
-1.8456529 2.6938863 -0.07619724 -0.09624572 -0.08411823 0.72375214 -0.53408295 -0.018552275
-0.28218788 0.45489216 2.3276608 0.48083538 -0.98330307 0.43227524 0.23675689 -1.0040401
-0.6028058 0.32959616 -0.47224984 1.5494733 2.529717 2.3637965 1.4238465 -0.70928866
-0.53719217 2.7939298 -1.0690324 0.5911495 -0.003029033 0.88489175 -0.63220733 0.73451406
-1.1903996 1.7578508 0.07226759 0.70296985 -0.27968514 -0.40975097 -0.20940527 1.7234054
-1.4790723 -0.9816742 0.8999427 1.2454011 1.269954 -2.2570875 -0.48431048 2.078636
-0.18135299 -0.8567312 -1.3720782 1.270926 -0.6417417 0.29393414 0.18473293 -0.6179842
-0.460897 -0.8187422 0.75557965 -1.2855251 0.14521904 0.73048866 1.3579309 -0.31713796
-0.6219651 -0.80894166 -1.3747019 2.8509932 -0.95597464 2.0760117 0.48228195 0.45473793
0.356245 0.5596865 -0.9527571 0.7752097 0.55585027 1.6368811 -0.76495695 -0.32534704
-0.9187218 1.159114 -1.5980942 -0.48473313 1.5723749 -1.1237857 2.6624541 -1.2688582
0.35783184 -0.2196955 0.12359303 -0.6054838 0.86605924 0.5313747 0.42392245 0.12985274
-1.0973767 -1.054725 1.3853729 0.067991115 1.0160155 0.4297582 -0.042022746 0.65009654
0.0053481995 1.8086501 -0.69462603 0.055883523 -2.2754426 -0.34155005 0.7740978 -1.6680903
0.2738297 0.7004391 -1.8230236 0.39323878 -1.2553637 -0.5418982 0.5015617 -0.16192792
1.5688806 0.44132674 -0.12531094 -0.02504088 -0.5440694 -0.6321793 0.5708963 -0.90774375
-1.1713237 0.97020113 0.13654208 1.652138 2.71332 -0.3326868 -0.24432603 -1.5094409
0.7743506 -0.5664031 -0.62206966 0.6968482 -2.7092147 0.8440734 1.1548228 -0.33187383
-1.6566632 -1.1926402 0.36952484 0.60202384 -0.09795172 -0.20265585 0.6797256 0.36451086
-0.33517113 0.48716286 -1.752039 -1.6888155 -1.4480085 -1.8607206 0.1285592 1.6440842
-1.3240994 0.006015837 0.6734445 1.4186813 0.13130862 0.7840204 1.1730264 -0.19045745
1.5461733 -1.5138118 -0.8955992 0.96873146 -1.9768637 0.38003093 1.8263128 1.5650148
-1.846873 1.297829 0.9126202 -0.9306402 -0.6798658 0.1602267 0.85596347 0.42032155
0.09795874 1.532767 -0.040356044 -0.6781248 -0.6810269 -0.60246676 0.6882756 -1.0134435
0.47833207 -0.9368751 0.5840866 0.78077865 0.26770055 -1.5729157 1.2648431 0.23000526
1.2492557 -0.4397548 -1.59294 -0.3430386 -1.3166565 -0.14669749 0.6449989 -1.9425247
-0.5901028 -0.8583414 -0.45228857 -0.87092435 -0.87561035 0.98173004 -0.014586063 -1.1422293
00000000: 8a7c fd3f d139 49bf 356a 5e3f 37db 6cbd
00000010: d8de 9f3f ce87 96bf 2a36 523f 3601 32be
00000020: 68c2 0cbf 99ed 80be cd3b 403e 82ac b5bf
00000030: 83cd 96be a8c4 033e 6b92 fb3f e3f1 e4bf
00000040: 6d2e bf3f 03ef c3be b43a 8b3f 01b6 ffbd
00000050: b4a8 2ebe 4990 05bf aa96 c1be 047d 743f
00000060: 9c62 e83f 3cef 573f 6dd3 9b3d e990 07c0
00000070: 605a c83d 472c e13f e51a 27bf bfcf 01bf
00000080: aa8d 4b3f a411 143f 53fe 923f 1f1d 89bc
00000090: 3923 b43e 930e c0be 97cd 99be c5fb 0ac0
000000a0: 5b3e ecbf a268 2c40 4c0d 9cbd 7a1c c5bd
000000b0: 2e46 acbd d247 393f a9b9 08bf f1fa 97bc
000000c0: ee7a 90be a0e7 e83e 65f8 1440 0e30 f63e
000000d0: c0b9 7bbf 2e53 dd3e 6670 723e 6384 80bf
000000e0: 7b51 1abf d4c0 a83e bbca f1be 2455 c63f
000000f0: e2e6 2140 7148 1740 9a40 b63f f193 35bf
00000100: 6d85 09bf bfcf 3240 0ed6 88bf 9355 173f
00000110: be82 46bb 4488 623f 57d8 21bf 1d09 3c3f
00000120: 045f 98bf 4101 e13f 0801 943d d5f5 333f
00000130: e432 8fbe e1ca d1be 566e 56be 8c98 dc3f
00000140: 3e52 bdbf 004f 7bbf a562 663f 4e69 9f3f
00000150: da8d a23f 1f74 10c0 8bf7 f7be 5f08 0540
00000160: 99b4 39be bc52 5bbf 42a0 afbf b4ad a23f
00000170: 2f49 24bf 897e 963e a12a 3d3e 3634 1ebf
00000180: b1fa ebbe 1799 51bf ab6d 413f 168c a4bf
00000190: 4db4 143e 4e01 3b3f aed0 ad3f e85f a2be
000001a0: 1b39 1fbf cd16 4fbf 3bf6 afbf ac76 3640
000001b0: c1ba 74bf 60dd 0440 a9ed f63e 69d3 e83e
000001c0: bf65 b63e 9d47 0f3f e4e7 73bf 2574 463f
000001d0: 344c 0e3f 5285 d13f 38d4 43bf e393 a6be
000001e0: 5a31 6bbf d95d 943f 5a8e ccbf f12e f8be
000001f0: 9543 c93f 36d8 8fbf a665 2a40 f269 a2bf
00000200: bc35 b73e dbf7 60be 581e fd3d fc00 1bbf
00000210: 0fb6 5d3f 2c08 083f 5d0c d93e 1ef8 043e
00000220: d776 8cbf 3b01 87bf e653 b13f ed3e 8b3d
00000230: cc0c 823f 4409 dc3e 0b20 2cbd ba6c 263f
00000240: f33f af3b d981 e73f 03d3 31bf 1fe6 643d
00000250: daa0 11c0 a6df aebe 462b 463f fc83 d5bf
00000260: 6833 8c3e fa4f 333f d658 e9bf 9856 c93e
00000270: c2af a0bf d7b9 0abf 5966 003f 6fd0 25be
00000280: 14d1 c83f 94f5 e13e 8351 00be 8822 cdbc
00000290: 2248 0bbf 81d6 21bf 4326 123f e561 68bf
000002a0: efed 95bf 1a5f 783f b0d1 0b3e 4279 d33f
000002b0: 09a7 2d40 ed55 aabe 9a30 7abe 5c35 c1bf
000002c0: d73b 463f cbff 10bf f53f 1fbf a564 323f
000002d0: c663 2dc0 3215 583f 3cd1 933f 5eeb a9be
000002e0: 8a0d d4bf 6fa8 98bf 5c32 bd3e 3c1e 1a3f
000002f0: e99a c8bd 0485 4fbe 7f02 2e3f 2ba1 ba3e
00000300: 8d9b abbe 696d f93e d042 e0bf 1b2b d8bf
00000310: 5858 b9bf 182c eebf 06a5 033e 5a71 d23f
00000320: 177c a9bf 8020 c53b dc66 2c3f 5997 b53f
00000330: c475 063e 90b5 483f bb25 963f 4707 43be
00000340: 02e9 c53f 96c4 c1bf fd45 65bf c9fe 773f
00000350: df09 fdbf 6a93 c23e 9ec4 e93f 6852 c83f
00000360: 5666 ecbf 431f a63f 7aa1 693f 703e 6ebf
00000370: af0b 2ebf 7812 243e 6c20 5b3f 6334 d73e
00000380: 989e c83d b631 c43f 614c 25bd 9699 2dbf
00000390: c757 2ebf 433b 1abf d432 303f 84b8 81bf
000003a0: f1e7 f43e 0cd7 6fbf b386 153f 1ce1 473f
000003b0: 0c10 893e 4d55 c9bf 61e6 a13f 8086 6b3e
000003c0: 9ce7 9f3f 8b27 e1be 75e5 cbbf c1a2 afbe
000003d0: 3388 a8bf de37 16be a61e 253f a6a4 f8bf
000003e0: fa10 17bf 43bc 5bbf 5e92 e7be e6f4 5ebf
000003f0: 0028 60bf a952 7b3f 62fa 6ebc 9234 92bf

params f4 [64, 16]
0.43542752 -0.14538339 0.023869967 -0.46733552 -0.5072829 -0.207002 -0.17005908 0.019268865
-0.033171307 0.540556 -0.043174937 -0.5144287 0.031183945 0.42563525 0.26755753 -0.37430584
-0.027336692 -0.10146963 -0.3529838 0.8566437 0.28031096 0.040893007 0.121144265 0.42584565
0.7179957 -0.06508049 -0.1256846 0.26774824 -0.63849837 1.0737681 0.01171021 -0.3124285
0.10446543 0.17180325 -0.15031886 -0.11508531 0.10970899 -0.13675919 -0.02466528 0.16933322
0.07802081 -0.26606995 0.16402404 0.11645939 -0.21489224 -0.04477063 0.19436266 0.2853334
-0.55678993 -0.010908522 0.6424249 0.055692095 0.03486462 -0.3124343 0.5994486 -0.016130853
0.014112568 -0.48039952 -0.41930076 -0.31219792 -0.2776271 0.98817027 -0.41498086 -0.40155926
-0.16513969 -0.4030816 0.45153332 -0.328372 0.26645786 0.26802596 -0.03397214 0.06630514
0.8254333 -0.71887416 -0.3156604 0.2133856 -0.4701657 0.0062816087 0.078995235 0.03932196
-0.3706405 0.15048268 -0.20387721 -0.08521415 0.16986966 -0.43409714 0.4984425 -0.42068243
0.07544468 -0.2243015 0.22755067 0.7955183 -0.009571211 -0.097452454 -0.23936997 0.08217139
0.18171228 0.06975301 0.187504 -0.2549492 0.00055446214 -0.045144964 0.1357915 0.007140029
-0.5045918 0.022407416 -0.27797413 0.17798157 -0.20298643 0.20810783 -0.36468458 -0.058477517
0.061080523 0.24286716 0.058478057 0.07337783 0.1796183 0.010660215 0.20287697 0.3378797
0.15658873 -0.13880698 -0.08624688 0.15425332 0.11327491 0.062490895 -0.18572253 -0.026494093
0.0117845535 0.17439614 0.48466337 0.027824124 0.054305356 0.055469822 -0.45456895 0.46974877
-0.0008806905 -0.22417362 0.78609544 -0.3431035 -0.25375745 0.48295578 0.21019804 0.25074816
-0.31395063 0.3396104 0.08617442 0.02572701 0.45148116 0.23303436 -0.36903197 -0.026721776
0.07093435 -0.3057521 0.20111437 0.4291458 -0.05756313 -0.22251587 0.013213634 0.22718632
1.3618937 -0.42238677 -0.52722317 -0.089744255 0.2438687 0.29457566 0.27226013 -0.47662663
0.87743926 -0.25840557 0.3714789 0.7479227 -0.42746407 0.9765839 -0.73402655 -0.00999058
0.18798818 0.38883117 -0.0065499693 -0.30951986 0.35520297 -0.009484432 0.36190408 -0.511737
0.43788987 -0.1678312 0.33842677 -0.36639693 0.099738754 -0.24910748 -0.22792457 -0.39899272
-0.17708611 0.14216201 0.13962428 0.20116429 -0.07453664 0.0087261135 0.06246982 0.19174175
-0.33788115 0.008683066 -0.2220115 0.43802217 0.011280954 -0.05389136 0.010048699 0.3200986
-0.45823887 0.26210833 -0.06536043 -0.33440325 -0.29092032 0.062093247 0.021955132 0.074899234
-0.002828901 -0.24812578 -0.1332143 0.02038039 -0.027048593 0.066152215 -0.09069098 -0.06624606
0.19013105 -0.07600192 -0.034740247 -0.38923126 -0.35652277 -0.23633146 -0.5158709 -0.0786903
0.15660484 0.1663393 0.2517918 -0.10393694 0.5516607 -0.0064012795 -0.19908187 0.47653383
0.7017549 0.2820812 -0.12877822 -0.31776473 -0.39713243 -0.8769406 0.57378346 0.056273803
-0.0004060962 0.14173886 -0.546397 0.26210004 0.30675262 -0.16114639 0.48261577 -0.1044486
00000000: 5bf0 de3e 62df 14be f38a c33c 9a46 efbe
00000010: 4bdd 01bf 55f8 53be f823 2ebe bdd9 9d3c
00000020: a3de 07bd e161 0a3f 34d8 30bd 99b1 03bf
00000030: 7975 ff3c ddec d93e 4dfd 883e 04a5 bfbe
00000040: 33f1 dfbc 4fcf cfbd 4bba b4be 004d 5b3f
00000050: eb84 8f3e 6d7f 273d 7c1a f83d 7108 da3e
00000060: 91ce 373f ec48 85bd 77b3 00be 4c16 893e
00000070: a174 23bf 3c71 893f 2edc 3f3c a1f6 9fbe
00000080: f9f1 d53d 31ed 2f3e 30ed 19be d9b1 ebbd
00000090: 1baf e03d 9a0a 0cbe d70e cabc b065 2d3e
000000a0: 60c9 9f3d 523a 88be ebf5 273e 4382 ee3d
000000b0: b60c 5cbe 6861 37bd 0107 473e 3817 923e
000000c0: c989 0ebf a8b9 32bc f575 243f 651d 643d
000000d0: 34ce 0e3d 63f7 9fbe 7775 193f da24 84bc
000000e0: 6738 673c edf6 f5be 97ae d6be 68d8 9fbe
000000f0: 2425 8ebe baf8 7c3f 5f78 d4be 2d99 cdbe
00000100: 611a 29be b660 cebe 602f e73e 6020 a8be
00000110: 2a6d 883e b33a 893e 5f26 0bbd fdca 873d
00000120: 994f 533f 2308 38bf 3d9e a1be c181 5a3e
00000130: 8fb9 f0be f4d5 cd3b 41c8 a13d 1010 213d
00000140: 97c4 bdbe 2218 1a3e 30c5 50be c284 aebd
00000150: 50f2 2d3e fb41 debe db33 ff3e b063 d7be
00000160: be82 9a3d 4baf 65be 0b03 693e 16a7 4b3f
00000170: 92d0 1cbc 2795 c7bd 671d 75be 7949 a83d
00000180: c912 3a3e abda 8e3d 0c01 403e b488 82be
00000190: 5359 113a ede9 38bd ed0c 0b3e e8f6 e93b
000001a0: ee2c 01bf c28f b73c a052 8ebe cd40 363e
000001b0: addb 4fbe 381a 553e f0b7 babe 1f86 6fbd
000001c0: 922f 7a3d 2bb2 783e b086 6f3d 1e47 963d
000001d0: dced 373e 2fa8 2e3c fbbe 4f3e 91fe ac3e
000001e0: cc58 203e 6b23 0ebe 34a2 b0bd 95f4 1d3e
000001f0: adfc e73d 74f6 7f3d 0c2e 3ebe 240a d9bc
00000200: 0014 413c e794 323e cc25 f83e 6bef e33c
00000210: 4b6f 5e3d 5334 633d 43bd e8be e982 f03e
00000220: 24de 66ba c58d 65be 8d3d 493f 43ab afbe
00000230: 7fec 81be fb45 f73e 283e 573e 1062 803e
00000240: 23be a0be 6ae1 ad3e 377c b03d 73c1 d23c
00000250: 8a28 e73e 8fa0 6e3e c2f1 bcbe a0e7 dabc
00000260: 0746 913d 8a8b 9cbe edf0 4d3e 00b9 db3e
00000270: 51c7 6bbd 33db 63be ff7d 583c 88a3 683e
00000280: 8852 ae3f 1443 d8be 19f8 06bf d6cb b7bd
00000290: b7b8 793e 9fd2 963e ae65 8b3e 6808 f4be
000002a0: dc9f 603f bc4d 84be 7b32 be3e dd77 3f3f
000002b0: 92dc dabe 6701 7a3f 2ae9 3bbf 88af 23bc
000002c0: f97f 403e e114 c73e 20a1 d6bb 6379 9ebe
000002d0: 2add b53e 9764 1bbc 7e4b b93e 3201 03bf
000002e0: 1a33 e03e f1db 2bbe 4646 ad3e 6198 bbbe
000002f0: d543 cc3d 0816 7fbe 0f65 69be c648 ccbe
00000300: 1056 35be eb92 113e abf9 0e3e 03fe 4d3e
00000310: aaa6 98bd f9f7 0e3c 5be0 7f3d f357 443e
00000320: c2fe acbe 6b43 0e3c fc56 63be 7144 e03e
00000330: c0d3 383c 30bd 5cbd 4ca3 243c f7e3 a33e
00000340: 499e eabe 1033 863e b0db 85bd e736 abbe
00000350: 82f3 94be 7d55 7e3d 40db b33c c564 993d
00000360: 1565 39bb af14 7ebe 5469 08be c7f4 a63c
00000370: 0395 ddbc d07a 873d 31bc b9bd 04ac 87bd
00000380: b7b1 423e e5a6 9bbd ca4b 0ebd 5249 c7be
00000390: 278a b6be e000 72be 1e10 04bf 6128 a1bd
000003a0: 055d 203e d954 2a3e dbea 803e e4dc d4bd
000003b0: a339 0d3f d3c1 d1bb 1edc 4bbe 3efc f33e
000003c0: 36a6 333f f26c 903e 70de 03be 0fb2 a2be
000003d0: f154 cbbe 2e7f 60bf 79e3 123f 5c7f 663d
000003e0: 4fe9 d4b9 fe23 113e ace0 0bbf fa31 863e
000003f0: ae0e 9d3e 8f03 25be 6a19 f73e 26e9 d5bd

params f4 [64, 16]
-0.086931616 -0.0023396076 -0.012663691 -0.37780383 0.21713121 0.10991348 0.09315733 0.32090557
-0.37229082 -0.182084 0.19112478 -0.08907903 -0.1898308 -0.100485325 -0.034748964 -0.15809202
-0.10454842 -0.13601382 0.15829751 -0.05379173 -0.028190942 0.059826788 0.44336855 -0.080722325
-0.06639323 -0.5082578 0.025330406 0.15950568 -0.44164866 -0.21075715 0.29233494 -0.26302406
0.27218518 0.048010595 0.13354556 0.0017299281 0.14025383 0.13107198 0.16643097 -0.1456254
0.23005007 0.23371723 -0.23533532 -0.23240484 0.07661287 -0.023633078 0.21469629 0.09481507
0.1247388 -0.051156312 -0.023854498 0.28176677 -0.115898 0.0009209319 0.053619 0.03482504
0.15742429 0.077267386 -0.19888414 0.32062295 0.2663097 -0.19321585 0.14211854 0.13208176
0.044512555 -0.15220702 0.12079525 -0.30265713 0.14509049 -0.02461068 0.07037527 -0.17227814
-0.09823373 0.059777275 -0.07469376 -0.12581669 0.17541526 -0.3455535 -0.0037582102 -0.19250129
-0.3192785 0.064829946 -0.23943555 0.04975441 -0.08455914 0.030324947 0.19181606 0.07100319
0.083507575 -0.2129257 -0.07587014 0.15101846 8.2055776e-05 0.057354715 0.12431046 -0.26471487
-0.14315544 0.11911906 0.19290328 -0.1357582 -0.07833181 -0.010124212 -0.17159654 0.029268555
-0.26694962 -0.027180891 -0.08157227 -0.17247462 -0.08327062 -0.10486365 -0.13766831 0.16354
-0.20475607 0.038418677 -0.0700314 -0.06254633 -0.22867857 0.2627285 -0.21586871 -0.105925605
-0.21789896 0.106538735 -0.09310629 0.003342023 -0.24050403 -0.24670066 0.12116987 -0.27739444
-0.055451207 0.011976184 -0.19585098 0.1661931 -0.3079912 -0.16964379 0.21370827 0.15211633
-0.113980256 -0.026049197 -0.2354961 0.04825219 -0.08487127 0.11066069 -0.0741281 0.059592992
0.19215713 -0.16752583 -0.08599565 -0.32215315 0.2914111 -0.2858676 -0.16644959 0.2594296
0.033996236 -0.043224286 0.16264975 0.14653207 -0.23389566 -0.17701046 -0.13140197 0.0914469
-0.088726014 0.6664193 -0.16476646 -0.33580098 0.061093293 -0.1594595 0.033975467 0.118888214
0.27099037 -0.37410215 0.36656296 0.056438327 0.31942105 -0.3835702 -0.33354142 0.010058167
-0.2999618 0.06474495 0.0043679764 -0.18324733 0.066037536 0.0745142 0.21405314 0.0061150184
-0.037364632 0.20536312 0.061769888 0.30446213 0.13300295 0.1234354 0.34406006 -0.034305446
0.17331092 -0.20349713 -0.20676793 0.14213194 0.15876237 -0.06197121 0.23663856 -0.18546838
0.08475104 -0.20142889 0.31524026 0.08015798 -0.097243264 -0.15768732 -0.13342701 0.080642514
-0.02154177 0.18137157 -0.10292707 -0.013474569 0.17759758 0.08287233 0.14182284 0.034051422
-0.073900186 -0.058212265 -0.32881376 -0.049530108 0.13601802 -0.0597705 0.24054973 0.0042345887
-0.47146553 -0.1224956 -0.07384958 -0.2154837 -0.024488816 -0.01115566 -0.009272448 0.26150838
-0.12174993 0.22135046 0.38978502 0.35244942 0.18502343 0.026447982 0.46810976 0.14275047
0.0439665 0.33356175 0.18205719 -0.045180593 0.066996016 -0.048358727 0.29876536 -0.13256942
0.1617696 -0.05847774 -0.22246514 -0.2117972 -0.10140957 0.16644792 -0.18524879 -0.37423304
00000000: 3409 b2bd 1a54 19bb 5f7b 4fbc 816f c1be
00000010: a557 5e3e 521a e13d 45c9 be3d bc4d a43e
00000020: e79c bebe 3a74 3abe 37b6 433e 116f b6bd
00000030: 0163 42be 40cb cdbd ee54 0ebd e0e2 21be
00000040: 7b1d d6bd 3547 0bbe be18 223e b854 5cbd
00000050: b1f0 e6bc ef0c 753d 3401 e33e bf51 a5bd
00000060: 2cf9 87bd 2f1d 02bf b681 cf3c 7555 233e
00000070: c61f e2be b9d0 57be edac 953e 17ab 86be
00000080: db5b 8b3e c2a6 443d 2bc0 083e c1be e23a
00000090: b39e 0f3e bc37 063e e16c 2a3e d31e 15be
000000a0: 3f92 6b3e 9253 6f3e befb 70be 89fb 6dbe
000000b0: 35e7 9c3d 289a c1bc 58d9 5b3e 672e c23d
000000c0: 0e77 ff3d 4889 51bd 826a c3bc bc43 903e
000000d0: ee5b edbd b26a 713a 999f 5b3d b3a4 0e3d
000000e0: d533 213e 5d3e 9e3d 49a8 4bbe b128 a43e
000000f0: bf59 883e 60da 45be 8687 113e 7140 073e
00000100: cc52 363d 28dc 1bbe 8063 f73d e0f5 9abe
00000110: 9a92 143e 569c c9bc e920 903d ae69 30be
00000120: c42e c9bd 04d9 743d 0bf9 98bd 17d6 00be
00000130: 0fa0 333e 63ec b0be 4e4c 76bb 0f1f 45be
00000140: 7978 a3be 90c5 843d 982e 75be 48cb 4b3d
00000150: 582d adbd 066c f83c 6e6b 443e 1f6a 913d
00000160: 0506 ab3d 3209 5abe ce61 9bbd 95a4 1a3e
00000170: 5c15 ac38 c7ec 6a3d 7c96 fe3d b588 87be
00000180: 5797 12be b2f4 f33d 7088 453e 3304 0bbe
00000190: 6e6c a0bd 06e0 25bc 01b7 2fbe 9cc4 ef3c
000001a0: 9fad 88be 76aa debc 5d0f a7bd 309d 30be
000001b0: c989 aabd c1c2 d6bd ecf8 0cbe 0877 273e
000001c0: 93ab 51be e75c 1d3d 9f6c 8fbd 4a18 80bd
000001d0: b72a 6abe 5a84 863e b00c 5dbe 86ef d8bd
000001e0: e820 5fbe fb30 da3d 83ae bebd d705 5b3b
000001f0: b046 76be 199f 7cbe e927 f83d a506 8ebe
00000200: ce20 63bd c237 443c 298d 48be 862e 2a3e
00000210: 06b1 9dbe 1ab7 2dbe 57d6 5a3e 62c4 1b3e
00000220: 7b6e e9bd 2065 d5bc e425 71be 17a4 453d
00000230: fdd0 adbd 12a2 e23d 79d0 97bd c817 743d
00000240: d7c4 443e e48b 2bbe 7d1e b0bd 42f1 a4be
00000250: d633 953e 3d5d 92be c371 2abe f5d3 843e
00000260: a33f 0b3d f30b 31bd a88d 263e 810c 163e
00000270: 5882 6fbe 3b42 35be 3d8e 06be 8348 bb3d
00000280: fcb5 b5bd 759a 2a3f 8ab8 28be 1bee abbe
00000290: f63c 7a3d 5a49 23be dc29 0b3d aa7b f33d
000002a0: 40bf 8a3e 518a bfbe 24ae bb3e e02b 673d
000002b0: 288b a33e 5063 c4be f1c5 aabe 03cb 243c
000002c0: 9894 99be 0099 843d 3e21 8f3b 30a5 3bbe
000002d0: b03e 873d e79a 983d bf30 5b3e 7e60 c83b
000002e0: a80b 19bd b64a 523e 6c02 7d3d 76e2 9b3e
000002f0: ed31 083e b3cb fc3d a428 b03e de83 0cbd
00000300: 6b78 313e 8d61 50be f9ba 53be 098b 113e
00000310: 9a92 223e 86d5 7dbd 6151 723e 6ceb 3dbe
00000320: f491 ad3d 6043 4ebe 2c67 a13e de29 a43d
00000330: 7a27 c7bd c978 21be 17a1 08be e727 a53d
00000340: 5e78 b0bc 78b9 393e 6dcb d2bd 70c4 5cbc
00000350: 24dc 353e f8b8 a93d 023a 113e 8179 0b3d
00000360: fb58 97bd fc6f 6ebd 475a a8be 15e0 4abd
00000370: 4f48 0b3e e9d1 74bd ab52 763e 4ec2 8a3b
00000380: ee63 f1be f9de fabd 733e 97bd c2a7 5cbe
00000390: c59c c8bc 3bc6 36bc 77eb 17bc 6de4 853e
000003a0: 0758 f9bd b2a9 623e e791 c73e 4074 b43e
000003b0: c876 3d3e 70a9 d83c 15ac ef3e 2e2d 123e
000003c0: 3716 343d 9bc8 aa3e 336d 3a3e 490f 39bd
000003d0: 3535 893d cd13 46bd c6f7 983e 47c0 07be
000003e0: eea6 253e 5b86 6fbd e7cd 63be 5de1 58be
000003f0: d2af cfbd 5371 2a3e dcb1 3dbe 799b bfbe

params f4 [64]
-0.015665809 -0.01868247 -0.07537642 0.37040025 0.27757227 -0.089986645 -0.1179191 0.26122466
0.17618121 -0.14698264 0.214237 -0.035845295 0.1442955 0.16045238 -0.10016083 0.14563163
0.059336476 0.6528764 -0.28722093 0.31271857 0.2981907 0.29203305 0.21799503 0.25177157
0.17606546 -0.15269728 0.4587521 -0.20739645 -0.09221926 -0.08128369 0.06494414 0.68797266
0.105998546 0.19973463 0.054236736 -0.11257992 0.050248004 -0.071917355 0.36585987 -0.37887585
0.4029331 -0.20536238 -0.4354852 -0.37713176 -0.01910936 -0.38989377 0.09798569 -0.51820004
0.5510476 0.39654633 -0.035345655 0.58111644 0.20237558 0.40757388 0.06967196 -0.11381832
0.2599496 0.12379187 0.42890608 0.3503862 -0.042328883 -0.11694149 -0.07778028 0.047701906
00000000: 9555 80bc fb0b 99bc f45e 9abd 1aa5 bd3e
00000010: f41d 8e3e eb4a b8bd 927f f1bd 3dbf 853e
00000020: d968 343e 9e82 16be f260 5b3e 84d2 12bd
00000030: 33c2 133e a14d 243e 1f21 cdbd 7520 153e
00000040: ce0a 733d e822 273f 9f0e 93be a61c a03e
00000050: 74ac 983e 5b85 953e 173a 5f3e 34e8 803e
00000060: 814a 343e ad5c 1cbe 8ee1 ea3e bc5f 54be
00000070: 74dd bcbd 1078 a6bd 6f01 853d fa1e 303f
00000080: c415 d93d 3c87 4c3e 5727 5e3d 4d90 e6bd
00000090: dad0 4d3d 6849 93bd fc51 bb3e 04fc c1be
000000a0: 3f4d ce3e 844a 52be ebf7 debe 6a17 c1be
000000b0: 3c8b 9cbc 28a0 c7be b9ac c83d c2a8 04bf
000000c0: 7511 0d3f 1f08 cb3e 9bc6 10bd 0cc4 143f
000000d0: 8b3b 4f3e 86ad d03e 2cb0 8e3d 9419 e9bd
000000e0: 1d18 853e 9886 fd3d 9499 db3e d265 b33e
000000f0: 0d61 2dbd 057f efbd 444b 9fbd 1363 433d

params f4 [64]
-0.004793882 0.43393606 -0.14179151 0.06167977 -0.11813456 0.06569504 -0.11072627 0.16350475
0.16394818 -0.15957567 0.20617704 0.1256738 -0.05699498 0.03150648 0.13776481 -0.033293974
0.03399781 0.64578474 -0.06958627 0.47811615 0.033852383 0.3429114 -0.16548304 0.04176508
0.42441538 -0.30623546 0.19602108 -0.17708832 -0.18100762 0.21943359 0.057931654 0.41459933
0.094931036 0.03770072 0.28075272 -0.24302712 -0.1495764 -0.079057775 -0.027356504 -0.4958665
0.17876233 -0.043492135 -0.40851012 -0.43662938 -0.23364 -0.21802919 -0.29311246 -0.56210345
0.22058067 0.2779478 -0.22070812 0.15453398 0.40106845 0.08673741 0.14494623 -0.06832608
0.19026043 0.018335678 0.57854235 0.08163244 0.16242658 0.15867867 0.015273339 -0.13189554
00000000: ff15 9dbb de2c de3e cb31 11be eda3 7c3d
00000010: 88f0 f1bd 1f8b 863d 74c4 e2bd ca6d 273e
00000020: 08e2 273e ce67 23be 1320 533e a2b0 003e
00000030: 9173 69bd f00c 013d 3812 0d3e 435f 08bd
00000040: 4a41 0b3d 2652 253f 3f83 8ebd a4cb f43e
00000050: cca8 0a3d 1592 af3e 6374 29be dc11 2b3d
00000060: f94c d93e e5ca 9cbe c0b9 483e a456 35be
00000070: 105a 39be 33b3 603e be49 6d3d 5d46 d43e
00000080: 346b c23d 126c 1a3d d2be 8f3e 1adc 78be
00000090: 8e2a 19be 0be9 a1bd bf1a e0bc 37e2 fdbe
000000a0: 790d 373e cf24 32bd 3d28 d1be e38d dfbe
000000b0: 533f 6fbe 0b43 5fbe d612 96be 03e6 0fbf
000000c0: e6df 613e 2d4f 8e3e 4f01 62be 283e 1e3e
000000d0: d858 cd3e 62a3 b13d c96c 143e 8bee 8bbd
000000e0: a1d3 423e b434 963c 5a1b 143f e92e a73d
000000f0: 2753 263e a97c 223e 073d 7a3c a00f 07be

embedding.weight f4 [2217, 16]
1.0191722 1.6037109 -1.7861466 -0.34626713 1.1758977 1.6325339 -0.7911675 0.6545745
-1.480939 -2.4329572 -0.29663667 -0.23532535 -1.1539471 0.8145244 -0.5570858 -1.7347393
1.0617889 -0.5059396 -1.6028502 0.121296406 0.1969413 -0.40686655 -1.616099 1.7711682
1.0900656 1.0850725 -1.3818526 -0.43376577 1.8326428 0.8876886 -0.10377461 2.0095532
-1.6911798 -1.3023471 0.09276592 0.56391 1.0926192 -0.17117932 -0.9417885 -1.0725192
-1.2954509 -1.3699783 1.4210826 1.9388791 -1.1537778 0.5007061 -1.7295107 -1.7575401
0.75582194 -0.27343354 -2.5002577 1.1339248 -1.02907 -0.46939203 0.45602012 0.72639745
0.4270935 -0.955828 0.65669197 -0.8147201 -1.2299169 1.0738895 -0.5318386 -0.18271486
0.098862074 2.0987394 0.71927655 0.8346857 -0.10432663 0.124730796 0.32485053 0.032927647
-1.1468514 -0.00013983413 -0.2868708 0.09269921 -1.0368903 1.0067931 -3.2426448 -0.53344554
0.4384792 2.052596 0.576385 -1.0298778 0.32368356 0.7050727 0.38838926 0.25088674
0.20522073 1.4379301 0.6253462 0.52425027 0.93211216 0.62406677 1.3663914 0.07605272
0.8256528 -0.29135215 -1.3366882 0.35316795 -0.20969266 -0.034023356 1.1821656 0.26032388
-0.60389143 -0.89890873 0.7638608 1.136846 -0.09004089 0.25379476 2.2997625 0.37110397
1.1245934 -0.6484519 -0.40939042 -0.73845315 -0.14032681 -0.880907 0.6940539 0.71363413
-0.6807594 0.20999205 1.4855418 -0.6415065 -0.4691621 -1.0371579 0.79196066 -0.6028693
1.0752888 0.68628466 0.5345589 -0.21181531 0.9350386 -1.7453649 -0.3241867 0.37853926
-0.44476205 -0.178033 -0.7641802 -1.9293023 -1.0906327 0.046604108 -0.8348071 -1.5260695
-1.0019075 0.45843244 -1.0012467 0.057056863 -2.2227888 1.2713257 1.6237996 -1.2682434
0.44103658 0.6924425 0.5814402 0.31352675 -0.18753102 -0.49646053 -3.6082003 0.34685746
0.74433964 0.8954195 -0.14143623 0.98072857 -1.1428362 -0.095335476 0.7991191 -1.1391946
1.8832808 -0.23665872 -1.388414 -0.3095094 -0.6047111 1.4379504 -2.3688228 -1.7021306
-1.4094648 -0.72931504 -1.6891507 0.41608214 -0.059082434 1.167852 0.83188707 0.12886633
2.4128847 0.6395456 -0.03846133 -1.3983572 1.4940258 -1.9648215 -1.1272194 0.71237373
2.1349857 0.8248632 0.10184044 1.0155275 -0.57941 0.72060156 -1.3182405 2.0563097
0.363515 0.17838553 0.31714407 -1.5189738 -0.17419036 0.38601062 0.5345487 -0.33750007
0.28295198 -1.678062 0.18924794 0.77505296 0.3528313 -1.2669438 -0.7505384 -1.0319208
-0.7305415 0.56916934 -1.2657168 -1.0182526 0.6929878 -0.09688482 -0.6450803 2.4144468
-0.87269604 1.227071 -2.3001533 -0.62542015 -0.13516095 -1.4098749 1.4173197 0.75583375
0.5134466 1.2559818 1.0452144 -1.2202524 0.30454275 -0.41409045 -2.8789177 0.28999916
-0.41570842 2.9057398 0.9825934 1.1622949 1.2082205 -1.0088377 -0.06136707 -0.6293976
1.8086325 0.102833554 0.13281918 -0.43005136 1.0224293 -0.10615084 -0.34776968 -0.72035474
00000000: 3c74 823f 6646 cd3f 74a0 e4bf ed49 b1be
00000010: d183 963f dff6 d03f f489 4abf 3292 273f
00000020: 698f bdbf 92b5 1bc0 c3e0 97be 21f9 70be
00000030: 8ab4 93bf ac84 503f 2d9d 0ebf f00b debf
00000040: b3e8 873f 4285 01bf 322a cdbf 406a f83d
00000050: fbaa 493e d050 d0be 55dc cebf a4b5 e23f
00000060: 4587 8b3f a8e3 8a3f 8ce0 b0bf 8c16 debe
00000070: 0a94 ea3f 8f3f 633f c887 d4bd 859c 0040
00000080: 9478 d8bf 4fb3 a6bf 0ffc bd3d 685c 103f
00000090: f2da 8b3f a249 2fbe 0d19 71bf 4f48 89bf
000000a0: 56d1 a5bf 735b afbf 09e6 b53f 312d f83f
000000b0: feae 93bf 462e 003f 9b60 ddbf 13f7 e0bf
000000c0: 8c7d 413f 7bff 8bbe 3904 20c0 7324 913f
000000d0: 91b8 83bf 2754 f0be 787b e93e 2ff5 393f
000000e0: 00ac da3e 25b1 74bf f71c 283f 7f91 50bf
000000f0: eb6d 9dbf 3675 893f 9326 08bf 9b19 3bbe
00000100: 3378 ca3d bf51 0640 8222 383f f6ad 553f
00000110: 33a9 d5bd dc72 ff3d cf52 a63e 24df 063d
00000120: 07cc 92bf 70a0 12b9 bbe0 92be 15d9 bd3d
00000130: d2b8 84bf 99de 803f 7e87 4fc0 e38f 08bf
00000140: 5880 e03e bc5d 0340 f88d 133f 09d3 83bf
00000150: dab9 a53e a57f 343f f5da c63e 3a74 803e
00000160: 6225 523e 180e b83f b016 203f 4435 063f
00000170: e79e 6e3f d7c2 1f3f eae5 ae3f 87c1 9b3d
00000180: fb5d 533f 1c2c 95be 9918 abbf 6ed2 b43e
00000190: acb9 56be 135c 0bbd 3451 973f 2c49 853e
000001a0: a198 1abf e21e 66bf 628c 433f 2b84 913f
000001b0: 5c67 b8bd 63f1 813e 4f2f 1340 5701 be3e
000001c0: adf2 8f3f f200 26bf 9f9b d1be 440b 3dbf
000001d0: d5b1 0fbe 1f83 61bf 84ad 313f bab0 363f
000001e0: 3f46 2ebf 2808 573e 3c26 be3f c539 24bf
000001f0: 0436 f0be 97c1 84bf efbd 4a3f a455 1abf
00000200: 10a3 893f 5ab0 2f3f dad8 083f 1de6 58be
00000210: b15e 6f3f 1e68 dfbf cdfb a5be e6cf c13e
00000220: dab7 e3be 484e 36be 50a1 43bf 61f3 f6bf
00000230: da99 8bbf f3e3 3e3d ebb5 55bf 3f56 c3bf
00000240: 813e 80bf a8b7 ea3e da28 80bf 75b4 693d
00000250: 2c42 0ec0 cdba a23f aad8 cf3f cd55 a2bf
00000260: 8ccf e13e e943 313f 44d9 143f 9486 a03e
00000270: 2208 40be 1330 febe c1ec 66c0 4d97 b13e
00000280: 0b8d 3e3f 363a 653f a9d4 10be 0711 7b3f
00000290: 7548 92bf 3f3f c3bd 1293 4c3f 21d1 91bf
000002a0: 580f f13f aa56 72be 8db7 b1bf 0478 9ebe
000002b0: 59ce 1abf c20e b83f cb9a 17c0 6adf d9bf
000002c0: 5869 b4bf 64b4 3abf 1736 d8bf b808 d53e
000002d0: 6c00 72bd 2d7c 953f 8df6 543f 89f5 033e
000002e0: b46c 1a40 43b9 233f a189 1dbd 5efd b2bf
000002f0: 3d3c bf3f 457f fbbf ba48 90bf 205e 363f
00000300: 9ba3 0840 3c2a 533f b891 d03d cefc 813f
00000310: 3754 14bf 5879 383f 1bbc a8bf 949a 0340
00000320: a31e ba3e b2aa 363e b560 a23e bc6d c2bf
00000330: f55e 32be 2fa3 c53e 2fd8 083f cfcc acbe
00000340: 15df 903e bcca d6bf 36ca 413e df69 463f
00000350: 4ea6 b43e 372b a2bf 4923 40bf fb15 84bf
00000360: c504 3bbf 15b5 113f 0203 a2bf 1a56 82bf
00000370: a667 313f 8c6b c6bd fc23 25bf 4c86 1a40
00000380: 0269 5fbf aa10 9d3f b635 13c0 891b 20bf
00000390: a267 0abe c876 b4bf bb6a b53f 527e 413f
000003a0: 3d71 033f 03c4 a03f 96c9 853f 3b31 9cbf
000003b0: 07ed 9b3e aa03 d4be 3040 38c0 c57a 943e
000003c0: bcd7 d4be a4f7 3940 3e8b 7b3f 14c6 943f
000003d0: f8a6 9a3f 9821 81bf 095c 7bbd 3320 21bf
000003e0: 4581 e73f 669a d23d c001 083e b12f dcbe
000003f0: f7de 823f 9d65 d9bd de0e b2be 2b69 38bf
